model/model.pth (torch_old, 16197 bytes, 4 tensors)

linear1.weight f4 [256, 11]
000000 47 79 f2 3c a6 c5 8d 3e 46 53 0e 3f a4 2a 39 3d
       0.029598845 0.27689856 0.55595815 0.04520668
000010 2f 5a 68 be ee 0a 51 3b d5 8f af bd d5 5e 15 3e
       -0.22690652 0.0031897384 -0.08572356 0.14586957
000020 dc 42 3d 3e b7 a3 39 3c d2 39 86 3e 11 d2 df bc
       0.18482536 0.011330537 0.26215988 -0.027321847
000030 93 d5 96 3e 8f 52 f0 3d 1d 30 4f be ad 93 c9 3d
       0.2945982 0.11734497 -0.20233198 0.0984262
000040 9b 1c 5b 3c 63 79 80 3e d0 63 96 be e3 45 14 3e
       0.013373519 0.2509261 -0.29373026 0.14479785
000050 71 64 3d 3e 68 6c eb 3d 8b 9d 1a be 3e 5b 51 be
       0.18495347 0.11495286 -0.1509916 -0.20444962
000060 1d c3 0e 3d 7f eb 6a be 7e 48 17 be d6 d2 0c be
       0.034854043 -0.22941397 -0.14773747 -0.13752303
000070 7e 27 a3 3e 1a 6a a5 3d e5 69 bf be ad d6 9f be
       0.31866068 0.08076878 -0.3738548 -0.31218472
000080 a2 0e b4 3d e7 c3 f3 3b b7 73 b8 3e 69 a2 fc 3c
       0.087918535 0.007439125 0.36025783 0.030839162
000090 6c 4f 14 be 30 f3 e1 bd 82 2c 60 be 9a 5d 43 bd
       -0.14483422 -0.110327125 -0.21891978 -0.047696687
0000a0 71 cc 6c 3e ca 74 18 3e 8e 8b a4 3d a2 fb 3c 3c
       0.23124863 0.14888301 0.080344304 0.011534603
0000b0 42 44 8c be b8 fa 81 3e d8 7a 45 3e 08 2e 6c be
       -0.27395827 0.25386596 0.19285142 -0.23064435
0000c0 a5 93 e3 be 9f 9a f7 3e 73 98 14 3e 06 29 cc be
       -0.4444858 0.48360154 0.1451128 -0.39875048
0000d0 b2 16 05 bf f6 f8 21 3e 80 00 9b 3e 91 04 43 be
       -0.51987755 0.15817627 0.3027382 -0.1904471
0000e0 ff 00 f7 bd d9 8a c6 3e ba ce a6 bd 75 89 0e 3d
       -0.12060737 0.38777807 -0.08144899 0.034799058
0000f0 2a dd 1e bc b1 70 0f be 81 36 93 3e 62 3b 3f 3e
       -0.009696284 -0.14007832 0.2875252 0.18674996
000100 41 f2 2e 3c 1c c6 2f 3e 52 93 d2 be ec ca e6 bd
       0.010677875 0.17165416 -0.4112802 -0.11269173
000110 6a 72 90 3e 88 03 1b 3e ae a8 ff 3d 1b 9d e8 be
       0.2821229 0.15138066 0.12483345 -0.45432362
000120 0f 19 4a be 40 2e 32 3e af f3 c9 3e 85 fa 05 3e
       -0.19736122 0.17400455 0.39443728 0.13083847
000130 00 e7 14 be f3 79 2c bb 97 bd 10 bf 43 69 11 3f
       -0.14541245 -0.0026317805 -0.5653929 0.5680124
000140 9a 37 8e bd 93 ee ef 3d 30 6b 6c 3e 1d e2 d1 bd
       -0.06944199 0.11715426 0.23087764 -0.10248206
000150 03 55 f6 3d 1d 4b 9b 3e b4 13 03 3e 0e 1f b3 3e
       0.120279334 0.30330744 0.12800485 0.3498463
000160 02 9d 25 be e2 f9 41 3b d7 13 11 3f 72 83 0b bf
       -0.16173175 0.0029598405 0.566709 -0.54497445
000170 ca 45 2e be 8d 8f cb 3e ae c4 8d 3e 12 37 18 bf
       -0.1701881 0.39757958 0.27689117 -0.5945903
000180 f2 51 0e bf c9 eb d7 bd 62 f0 a4 3c 0c 40 25 be
       -0.5559379 -0.10543019 0.020134155 -0.16137713
000190 38 9e 22 3f 9e 88 96 be 0d 13 08 bd 5d 58 85 3d
       0.6352267 -0.29401106 -0.033221293 0.065109946
0001a0 d0 be 09 bd be ff 3c 3e 7f 13 83 bd 27 49 11 be
       -0.03362924 0.18456933 -0.06400203 -0.14188062
0001b0 3d e2 42 3e f3 1a 52 be 26 cc ab be a2 4c d7 3e
       0.19031616 -0.20518093 -0.3355419 0.42050654
0001c0 90 c6 24 3d f2 b7 c2 be d4 ab e8 3d 1b eb 1f 3e
       0.040228426 -0.38030964 0.113608986 0.1561703
0001d0 ed fc 45 3e 6d dd f3 be f2 c0 1a 3d 5b 4c 4f 3d
       0.19334765 -0.47629872 0.037781663 0.050609928
0001e0 a3 d8 06 3c 85 dc 57 be b1 45 e1 3e a2 a3 08 3e
       0.008230361 -0.21080215 0.43998483 0.13343671
0001f0 56 3b 29 3e 73 b1 05 bf 59 81 18 3e b0 6c 63 3d
       0.16526541 -0.5222389 0.14893092 0.055523574
000200 49 b7 6d be 63 54 eb be b0 f5 dc 3d 8b 64 7d 3e
       -0.23214449 -0.4596282 0.10789049 0.24745385
000210 3e 6d ad 3e 0c 13 5e 3e 87 a9 fc be d5 af 3e 3e
       0.33872408 0.21686953 -0.4934809 0.18621762
000220 50 87 69 be 02 be cd bd 50 6f 0c 3e b6 b9 c1 bd
       -0.22805524 -0.10046007 0.13714337 -0.0945925
000230 ec 8f 91 3e d9 b5 83 bd 8f a9 ed 3c ad 73 0e be
       0.28430116 -0.06431169 0.029011516 -0.13911314
000240 3d fc 3b be 18 72 4e 3e 25 ce f3 be 8b a3 dc 3c
       -0.1835794 0.20160711 -0.47618213 0.026933452
000250 6f 61 12 be ba 1f 82 3c 73 55 98 3e 89 56 c5 be
       -0.1429498 0.015884269 0.29752693 -0.38542584
000260 92 08 4c be 8b 6b dd be d5 b7 e5 3c 89 dc 24 be
       -0.19925144 -0.4324611 0.02804176 -0.16099752
000270 f7 6e 19 3c 0b 34 aa be 15 a4 31 3e 5d 57 8b 3e
       0.009364835 -0.3324283 0.17347749 0.2721509
000280 ae 36 bf be 7b 98 ae be ad ef 92 be ef 4a ab be
       -0.37346405 -0.34100708 -0.28698483 -0.33455607
000290 99 58 88 3e 94 82 43 3e 3a 2e aa 3d 74 b9 fa bd
       0.26630095 0.1909278 0.08309598 -0.122424036
0002a0 76 77 13 be 0e 94 95 bd cb 8b 63 3c 6f 06 78 be
       -0.1440104 -0.0730363 0.01388831 -0.24221204
0002b0 7f 2d 88 3e f3 43 b4 3a 23 46 b7 bb 10 ba 64 3e
       0.2659721 0.0013753161 -0.0055930777 0.22336602
0002c0 8e 94 10 3e 07 bc 1f 3f e8 8d 14 bf 2b 61 36 3e
       0.14119169 0.6239628 -0.5802903 0.17810504
0002d0 74 2e 81 3e 0e a6 aa 3d 7b 26 b7 3d c4 b3 8e 3d
       0.25230753 0.08332454 0.089428864 0.06967881
0002e0 b6 64 80 3e 8a 65 b9 bd a5 fa f5 3d de cc 96 bd
       0.25076836 -0.0905257 0.12010697 -0.07363294
0002f0 db b1 9b 3e 1c 54 95 3d dc c2 ff 3c 95 ae 9a be
       0.3040913 0.07291433 0.031220846 -0.3021132
000300 cd f9 d6 bb 20 43 1e 3d ea 25 41 3e 9d 0a fe 3e
       -0.0065605403 0.038638234 0.1886212 0.49617472
000310 51 cb 39 3e f5 df 37 3e d6 19 06 3d 66 b6 2d 3f
       0.18143965 0.17956527 0.032739483 0.6785644
000320 48 d3 f0 be 55 c9 ac bd 7e e5 5f 3e 9b c6 f5 3d
       -0.47036195 -0.084368385 0.21864888 0.120007716
000330 89 2b f9 3d 9a d6 2d 3e 43 8d 1f be d8 b6 8f 3e
       0.12166507 0.16976395 -0.15581231 0.28069186
000340 80 1e 8c 3e d3 70 8f 3d 80 c8 d0 be 06 c9 0e 3f
       0.2736702 0.070039414 -0.4077797 0.5577549
000350 9d 22 53 be e1 6b 13 3e ca 9c 0e bd bc b8 ae 3d
       -0.20618673 0.14396621 -0.034817494 0.08531329
000360 cc 48 40 bd 05 81 77 3e 17 8e 80 be 08 c5 fb 3d
       -0.046944425 0.24170311 -0.25108406 0.1229344
000370 c2 ce 3f bd 57 d9 20 3c 64 b6 1c 3c 0a b7 a8 3e
       -0.04682804 0.009817443 0.00956497 0.32952148
000380 14 ca bc 3e 39 d5 18 bf 51 1e 0e bf d2 e7 fa 3e
       0.36872923 -0.5970035 -0.5551501 0.4900499
000390 ef 45 0e 3f f0 a1 d1 be 99 d7 e6 be 37 0f 49 3e
       0.5557546 -0.4094386 -0.45086363 0.1963471
0003a0 8c d0 00 3d 6b d6 c1 be 2c ad dd be 81 e1 a7 3c
       0.031448886 -0.378589 -0.43296182 0.02049327
0003b0 b9 89 23 be 3b 7b e9 3d a4 e3 d9 3e 24 5b 06 3d
       -0.15970506 0.114004575 0.4255649 0.032801762
0003c0 45 66 28 3e af b5 06 be 36 1d 5a 3d 6a f9 a8 bd
       0.16445263 -0.13155244 0.053250514 -0.08250697
0003d0 b8 a4 ea be bc 1c cd 3d 6b dc a7 bd a3 bc 0a 3f
       -0.45828795 0.10015246 -0.08196338 0.54194087
0003e0 28 17 f8 bd ad 29 83 be bb 8a 07 be 27 be 72 3e
       -0.12113792 -0.25617734 -0.13236515 0.2370535
0003f0 65 4a 0e bf 7c 48 c4 bd e9 fc ac 3d f3 a0 c7 3d
       -0.5558227 -0.09584138 0.08446676 0.097474955

linear1.bias f4 [256]
000000 f1 bf 10 3e 59 c9 4b 3d 7e 03 0b 3d 15 8e 16 3d
       0.1413572 0.049752567 0.033938877 0.036756594
000010 3a 60 08 3c e3 1c 8a bd 02 66 df bc bf 92 97 be
       0.008323723 -0.06743791 -0.02727032 -0.29604146
000020 1f 96 87 3e 0d 6d 53 3e f5 fd ab 3e 0b bb 93 3e
       0.2648172 0.20647068 0.3359219 0.2885364
000030 52 bf 2e be 08 fe 15 3e c8 c9 d5 3c 12 74 ec bd
       -0.1706517 0.14647686 0.026097193 -0.11545576
000040 cc 77 be bd f5 3c 6f be ed f0 38 3e 1a 74 72 3d
       -0.09300193 -0.23363097 0.18060656 0.059192754
000050 c8 01 8b 3d 00 fd 33 ba 3e 13 e8 3d 2b 0e 17 3d
       0.06787449 -0.0006866008 0.11331795 0.036878746
000060 4f af 7a bc 40 43 79 3d 62 5a 0a be b5 f2 d4 3d
       -0.015300586 0.06085515 -0.13511041 0.10397855
000070 c7 5f d2 3e 40 21 9b be cd 9c 3d bd 0b 79 23 3d
       0.41088697 -0.30298805 -0.046292115 0.039910357
000080 41 5f c5 bc f8 d2 90 be 4e 64 2a 3d 4a 4b 8a be
       -0.024093272 -0.28285956 0.041599564 -0.27010566
000090 1c 74 43 be cd a0 47 be a9 1d 97 be 47 23 93 be
       -0.19087261 -0.19494934 -0.29514816 -0.28737852
0000a0 da ff e4 bd 85 f9 f9 3d 21 44 f7 3d a2 82 6c be
       -0.11181612 0.12205795 0.120735414 -0.23096707
0000b0 1a 4c af be 03 f5 91 be fc 4a 05 3e d5 ac 05 be
       -0.34237748 -0.28507242 0.13016886 -0.13054211
0000c0 af 83 37 bd 9f 1f 05 3d 64 86 80 3e fb 0a 8a be
       -0.044803318 0.03250086 0.25102532 -0.26961502
0000d0 2e e5 66 be 53 17 5e 3d 18 f6 04 3d 22 70 0e bd
       -0.22548363 0.054221462 0.032461256 -0.034774907
0000e0 a6 a6 6e 3e 52 5b 41 3c 9a 9c 02 be 10 d6 1b bd
       0.23305759 0.011801558 -0.12755051 -0.038045943
0000f0 6e 7e 05 be db 6a 21 bd 9f f4 d1 bc 42 f8 a0 be
       -0.1303651 -0.039408546 -0.02562934 -0.31439406
000100 f8 38 2d 3e 2e 44 2e be 05 5f 4b be 8c 4f f1 3d
       0.16916263 -0.17018196 -0.19860466 0.117827505
000110 48 4b 45 be 63 e5 2b 3c 75 34 98 3e 4d 1a 0e 3e
       -0.19266999 0.010491702 0.29727522 0.1387722
000120 dd e9 ac bd ef 66 11 3e bd 5f 17 3e 08 79 7a bd
       -0.084430434 0.14199422 0.14782615 -0.06115058
000130 87 87 da 3d d8 c6 cf 3e a0 50 83 be ce d5 18 be
       0.10670381 0.40581393 -0.2564745 -0.1492531
000140 2e 02 ce bd 76 e4 0e bd e6 a9 ae 3e e7 e5 b5 3e
       -0.100590095 -0.034885846 0.34113997 0.35526964
000150 17 a8 63 3e bf 73 07 3f d5 bd a8 be 6c 1c 68 3e
       0.2223209 0.5291099 -0.3295733 0.22667092
000160 0f 42 7a be 46 9a 96 3e 51 ac 1a bd ca 48 3c bd
       -0.24439262 0.29414576 -0.03776199 -0.045967855
000170 1e 59 47 bc 06 25 03 be 56 7f 0f bd 0b 58 f8 be
       -0.012167243 -0.12807092 -0.035033546 -0.4850467
000180 ad 19 88 bd 81 d1 b1 be 61 4e 22 be b5 78 2a 3d
       -0.06645522 -0.3473015 -0.15850212 0.04161902
000190 8e 4d d9 bd e8 3f 08 3e 22 7b 67 bc 3b 46 b8 bd
       -0.106104955 0.13305628 -0.014128478 -0.089977704
0001a0 5a 6c 57 bd ae 9c 40 be 41 92 80 be a8 15 8c be
       -0.052593566 -0.18809769 -0.25111583 -0.27360272
0001b0 78 c8 d9 bd 7c 32 80 be 8d 4c 0b be 0f 26 50 be
       -0.106339395 -0.25038517 -0.1360342 -0.20327018
0001c0 c6 5a 0b 3e 64 48 a0 be 39 0b ce bd fb 92 ba bd
       0.13608846 -0.3130523 -0.10060734 -0.091100655
0001d0 f0 55 53 be a6 9b 82 bd 0a 83 6d bc f9 14 56 be
       -0.20638251 -0.06377344 -0.014496574 -0.20906438
0001e0 8a cc 60 bd f1 77 8b be 49 f1 2f be d3 cf e7 3d
       -0.054882564 -0.27239946 -0.17181887 0.11318936
0001f0 15 56 93 be d5 78 89 be b9 21 b8 3d e4 cd 9c be
       -0.28776613 -0.2685 0.08990807 -0.30625832
000200 61 0b e7 bd 3b 9c 77 3d a9 40 c0 bd 52 9b 62 be
       -0.11281467 0.060451727 -0.09387333 -0.22129562
000210 60 7d 85 bd dd 77 e0 bd d5 d2 b7 3d 41 97 16 3d
       -0.06518054 -0.10960362 0.0897576 0.03676534
000220 7d 8f 20 3e 07 f3 2c bd 15 9b 43 be 06 61 20 be
       0.15679736 -0.042223956 -0.19102128 -0.15662012
000230 02 0c fb bc 22 87 ad 3d ad f8 57 3d f7 e6 46 be
       -0.030645374 0.0847304 0.05272739 -0.19424044
000240 66 d5 65 3e f0 5c 9d be 73 47 52 3e 53 ca 0f 3e
       0.22444686 -0.30734968 0.20535068 0.14042024
000250 1a 26 84 be 2f 8d 92 3b 45 ad 9e 3d 5a eb d9 be
       -0.2581032 0.004472397 0.07747892 -0.42562371
000260 2d f3 cb 3e c7 a7 06 be bb f1 0c 3f 04 ee 6d be
       0.39833966 -0.1314994 0.5505635 -0.23235327
000270 08 f4 22 be ca 4c d5 bd d5 da ca be de 20 e1 bc
       -0.15913403 -0.10415037 -0.3962008 -0.027481493
000280 1c f7 88 bd 84 a2 b0 be 20 be 20 3c 8a b6 a9 be
       -0.066877574 -0.3449899 0.009810954 -0.3314708
000290 ad af 88 3e b0 88 37 3e 61 c3 06 be d2 02 2c 3f
       0.2669653 0.17923236 -0.13160469 0.67191803
0002a0 7f 9c 40 bd 7a 67 9f bd 1f a0 49 bc 06 1a a7 3e
       -0.047024246 -0.077834085 -0.012306242 0.32637042
0002b0 eb bf 5f be eb ec fa bd 04 75 17 3e c3 f8 d6 bc
       -0.21850555 -0.1225222 0.14790732 -0.026241666
0002c0 5d 03 f4 bd 2d ad f1 bd b9 ca 5d 3e 65 ed 87 be
       -0.11914704 -0.11800609 0.21659364 -0.26548305
0002d0 4c 15 f1 bd 39 f2 88 3e 22 46 28 3d 31 34 5a be
       -0.1177164 0.267473 0.04108251 -0.21308972
0002e0 9a 81 af be 03 96 b9 3e 14 a0 ae be 36 a0 15 bc
       -0.34278566 0.36247262 -0.34106505 -0.009132436
0002f0 9d 37 2d be b5 96 b0 be c0 ae 6d be ef e6 fc bd
       -0.16915746 -0.3448998 -0.23211193 -0.123487346
000300 b1 4b 9c bd a0 3f f1 bd 6e 25 26 be b8 9c 72 be
       -0.076316245 -0.11779714 -0.16225216 -0.23692596
000310 40 65 0b bd e0 f3 05 3e e4 2f d6 bd dd e1 35 be
       -0.034032106 0.13081312 -0.10458353 -0.17761941
000320 8b 87 29 be 7b ae 88 3e 50 50 a3 be 31 a1 de bd
       -0.16555612 0.26695618 -0.3189721 -0.108705886
000330 34 68 2c b9 d2 69 88 be bd a9 a9 bd b3 00 a9 3b
       -0.00016442017 -0.26643234 -0.08284328 0.005157554
000340 5d 26 fe 3c 4f 4b 63 be 91 dc 10 3d 3e 45 e3 3d
       0.031024152 -0.22196697 0.0353666 0.11097191
000350 36 b4 e5 bb 50 25 5e 3e 9e 71 a4 be 58 5d 83 be
       -0.007010008 0.21693921 -0.32117933 -0.25657153
000360 08 a6 d3 bd 25 93 3a 3e 09 0d 7d bd 3a ff ab bd
       -0.10334402 0.18220194 -0.06178001 -0.0839829
000370 62 e4 81 be 00 7a c9 3e 4d 67 ec 3e b8 5a b1 3e
       -0.25369555 0.3935089 0.46172562 0.34639525
000380 6c 93 b8 bc d2 11 49 3e f4 ee e7 bd f4 8b ca 3e
       -0.022531234 0.19635704 -0.113248736 0.395599
000390 d0 d8 b6 3b 51 b8 0b bd 33 60 0a bc c5 f1 a7 3e
       0.0055800453 -0.034111325 -0.008445787 0.32801643
0003a0 5c eb 6e be 9c 34 ec bd f6 1c 3a be 74 17 33 be
       -0.2333197 -0.11533472 -0.1817511 -0.17489415
0003b0 31 6d 2a be 40 2c 51 be 77 94 ca bd 8c 39 86 bd
       -0.16643216 -0.20427036 -0.09891599 -0.06553945
0003c0 0e 07 85 3e cd 57 ba 3d 77 c2 c3 bd 52 d1 d3 3e
       0.25981945 0.09098778 -0.095585756 0.41370636
0003d0 20 a2 a7 bd e9 e6 de bd 40 8b 1d 3e 5b 41 91 3d
       -0.0818522 -0.10883886 0.15385151 0.07092544
0003e0 08 fb 88 bd 2c 19 e3 3e 8d a7 b6 bd 31 29 ad be
       -0.066885054 0.44355142 -0.089186765 -0.3382049
0003f0 3c e6 06 be 0a 73 22 3e 06 81 8e be 23 3e 77 bd
       -0.13173765 0.15864196 -0.27832812 -0.060361993

linear2.weight f4 [3, 256]
000000 98 93 16 3d 50 b7 18 3e be df f8 3d 94 8d 97 3c
       0.03676185 0.14913678 0.121520504 0.018500127
000010 49 02 e2 3e 66 c8 7d bc d0 63 56 3d d3 ff b9 bd
       0.44142368 -0.015489673 0.052341282 -0.09081998
000020 86 e7 fd 3e 55 65 16 3e 61 80 d8 3e 28 a4 d2 3e
       0.495907 0.14687093 0.42285445 0.41140866
000030 db 08 08 be c4 a0 98 be 1f 98 84 be c1 71 aa bd
       -0.13284628 -0.29810154 -0.2589731 -0.08322478
000040 eb cf 64 3d d4 5c 2b be a8 7d e3 3d 40 ee bb 3c
       0.05586235 -0.1673463 0.111079514 0.022940755
000050 fb 35 15 3f af a8 93 be d5 92 a3 3e 59 bc f9 3d
       0.5828549 -0.28839633 0.3194796 0.121941276
000060 3b 0b 11 bc e2 99 1c 3e 7a 30 05 bf 4a 36 52 3d
       -0.008852775 0.15293077 -0.52027094 0.051321305
000070 f6 d3 87 3e 61 03 b1 bd 59 b4 b7 bd 05 d9 12 be
       0.265289 -0.086432226 -0.089699455 -0.14340599
000080 d9 f0 a5 3e ae 72 2d be fe 67 6d be 14 67 18 bf
       0.32410315 -0.16938278 -0.23184201 -0.59532285
000090 81 e4 64 be 93 cb e1 3e 8b 3e 9b be ce 26 12 be
       -0.22352792 0.44100627 -0.30321154 -0.14272615
0000a0 f8 fc 42 be ca c9 cd 3d 76 a6 49 3e 0a 90 e8 be
       -0.19041812 0.10048254 0.19692406 -0.45422393
0000b0 4b 9b a4 be dd 07 97 bd e3 f9 9d 3d d7 37 ce be
       -0.3214973 -0.07374547 0.07713678 -0.40276977
0000c0 f2 1f 02 bf ac 63 09 bd c7 b3 98 3e ed 30 8d be
       -0.50829995 -0.03354232 0.2982466 -0.2757639
0000d0 44 6a 8b 3c e4 74 8c 3c a5 50 6c be 97 ed be bc
       0.017018445 0.017145582 -0.23077638 -0.023306651
0000e0 9a aa c8 3d 73 25 11 bd b1 a4 6e be e8 2b 94 be
       0.09798165 -0.035436105 -0.23305012 -0.28939748
0000f0 92 f2 8c be 8e 38 9b 3e 11 54 30 3e dc 11 78 be
       -0.27528816 0.30316585 0.17219569 -0.24225563
000100 16 22 15 3e b3 47 42 be bb 0d ac be f4 e1 69 3e
       0.14563784 -0.18972664 -0.33604226 0.228401
000110 5f f5 0b be 18 5e e1 3d 2e c7 5d 3e 99 7d c1 be
       -0.1366782 0.11004275 0.21658012 -0.37791136
000120 4a 4b 11 bf c7 66 da be 56 e1 c1 3d 3c 65 1f 39
       -0.56755507 -0.42656538 0.094668075 0.00015201134
000130 39 5f 0d 3e 3a d1 87 3e 72 98 39 be 8e d4 f9 bd
       0.13805856 0.26526815 -0.1812456 -0.12198745
000140 bf 34 81 be e7 03 da be 87 72 b3 3e 03 16 86 3e
       -0.25235555 -0.42581102 0.35048315 0.2618867
000150 de 7f 16 3e 3a de 4e 3e a7 f3 42 be 8d dc 90 3e
       0.14697215 0.2020196 -0.19038258 0.28293267
000160 e6 44 50 3d d1 0a cf 3e a3 33 2c 3e ab 70 f2 be
       0.050846957 0.4043794 0.16816573 -0.47351584
000170 32 99 92 be 1b d0 04 be 95 39 a4 3e e1 80 4c be
       -0.28632504 -0.12970011 0.32075182 -0.19971038
000180 40 f8 c3 3e 3b 96 13 be 09 d9 be be 7b 0a 1f bf
       0.38275337 -0.14412777 -0.3727496 -0.62125367
000190 a7 ae 03 3e 9e 47 c7 3e 2d 55 ae be 3d 9a 39 bd
       0.12859593 0.38921827 -0.3404936 -0.04531311
0001a0 a8 94 c8 3c 9f bc 05 be 71 58 7e be 01 3f be bc
       0.024484947 -0.13060234 -0.24838425 -0.023223402
0001b0 dd 71 bb 3d 98 35 64 be 58 e0 93 3b 8d 15 8f be
       0.09152577 -0.2228607 0.004512828 -0.2794613
0001c0 9b 05 8c 3e e6 19 e6 bd ca f2 25 3d f7 80 da bd
       0.27348027 -0.112354085 0.040514745 -0.10669129
0001d0 c9 4d 5e be a6 d9 ad be 25 9b e7 be 33 75 91 be
       -0.2170936 -0.33955115 -0.45235553 -0.28409728
0001e0 a5 cb b1 be 2a ad a7 be a6 5d 08 be ed e5 26 3d
       -0.3472568 -0.327493 -0.13316974 0.040746618
0001f0 48 a3 77 bc d7 d8 e5 be 8d 78 b8 bd f1 bf ee bd
       -0.015114613 -0.44891998 -0.09007368 -0.11657704
000200 e5 ad fe bc 99 b8 3c 3d e6 2b 0d bf e5 40 49 bc
       -0.031088779 0.046074484 -0.5514511 -0.0122835385
000210 f2 8c 0a 3e 41 31 7d bd 94 2e 93 3d 47 fd c9 bd
       0.13530329 -0.06181455 0.071866184 -0.09862762
000220 0c e5 e0 bb 45 d5 02 be b7 52 35 bd 41 15 36 be
       -0.006863242 -0.12776668 -0.044268336 -0.17781545
000230 58 1a 8a bd 3b 02 10 3e e2 38 e0 bd b7 27 74 bd
       -0.06743306 0.14063351 -0.109483495 -0.059608188
000240 59 d9 9e 3e 09 09 a1 bd 9c b2 8a 3d fd 3c 45 3d
       0.31025198 -0.078630514 0.06772348 0.048153866
000250 91 45 e3 3b 31 a4 50 bd 2d 2f 6d 3d ef eb 9c be
       0.006935783 -0.050937835 0.05790632 -0.30648753
000260 29 b6 ca 3d 75 76 9a be 74 52 bf 3e f0 6f a3 bb
       0.098980255 -0.301685 0.37367594 -0.004987709
000270 ff e9 83 bd b3 cb a2 bd d6 eb 05 3d a8 ad be be
       -0.064411156 -0.07949009 0.032695614 -0.37241864
000280 2d 41 40 3e 0e 97 85 be 20 7d 0f bf 2a 06 92 be
       0.18774863 -0.26091808 -0.560503 -0.28520328
000290 16 39 ed 3e a5 8d b4 3e e7 d4 e0 be b0 d3 9e 3e
       0.46332616 0.35264316 -0.43912432 0.3102088
0002a0 05 36 63 be 84 91 23 3b ce d0 ab 3c 59 af 57 3e
       -0.22188576 0.002495856 0.02097359 0.21062984
0002b0 09 93 2e be d0 af 86 bd 58 ab 72 3e 68 53 a8 3e
       -0.17048277 -0.06576502 0.23698175 0.32876134
0002c0 fb 6b ee bb 4b 41 76 3e 1e 25 83 3e 34 7b 67 bd
       -0.007276056 0.24048345 0.25614256 -0.05651398
0002d0 69 a8 91 3e 68 f4 24 3e 65 bd b1 3e 09 d5 1e be
       0.284488 0.16108859 0.3471481 -0.15510954
0002e0 88 e8 7a bc 3c df 91 3e 12 4e e5 bd 49 e3 e3 3c
       -0.015314229 0.28490627 -0.11196531 0.027818339
0002f0 8c 46 45 be 79 f3 90 be c0 e6 90 be 5c 22 ea be
       -0.19265193 -0.28310755 -0.28301048 -0.4572934
000300 93 60 d0 3c be fe a5 be c9 17 5b be b2 f5 3c 3e
       0.025436675 -0.32420915 -0.21395792 0.184531
000310 9c 02 f7 3c fe 8e d6 be a3 2d 47 be a6 2d 07 be
       0.030152611 -0.4190597 -0.19451003 -0.13201007
000320 e0 db 06 3e 73 d4 e3 3d f1 ab 5f bc 63 fb 85 be
       0.13169813 0.11124506 -0.013651834 -0.26168355
000330 97 63 ce be a5 f0 b4 be 79 67 5a be cf ad ab be
       -0.40310356 -0.35339847 -0.21328534 -0.33531043
000340 8b 18 bd 3e 85 f4 11 be 29 bc 50 3e 95 f8 bb 3e
       0.36932787 -0.14253433 0.20384277 0.3671309
000350 70 31 0f be 78 f4 91 3e 0e 6f 56 bd f9 08 13 bd
       -0.13983703 0.28506827 -0.052352004 -0.03589723
000360 59 91 b8 be 70 0c 6d 3e 32 ba ad bd d6 99 74 bc
       -0.3604839 0.23149276 -0.084827796 -0.0149292555
000370 34 c9 90 3b 58 49 96 3e 90 d2 c8 3e bd 0c 9b 3e
       0.0044185165 0.29352832 0.39223146 0.30283156
000380 b1 96 44 be 61 6e b6 be 2d bf fa be ec 1d bd 3e
       -0.19198109 -0.35631087 -0.4897398 0.3693689
000390 bd 23 23 bf ec 93 ba be 97 d2 ab 3d 67 8e 9f 3d
       -0.6372641 -0.3644098 0.08389776 0.07790833
0003a0 e5 aa 2b bc 57 e3 ff 3b c5 90 3f bd 3f 5c 73 bd
       -0.010477756 0.0078090834 -0.046768922 -0.059414145
0003b0 b8 65 05 3e 71 8c df be be b9 de be 58 4c 0a bf
       0.13027084 -0.43661836 -0.43501085 -0.5402274
0003c0 f0 1b 07 3e 34 b1 9f 3e e6 88 05 bf 71 63 64 3e
       0.13194251 0.31189883 -0.52162015 0.22303559
0003d0 4d e9 c5 3c 4d 52 31 be 6f 92 c5 bd ae d0 43 be
       0.024159098 -0.17316552 -0.096470706 -0.19122574
0003e0 f8 7a d1 be 26 61 06 3f d7 bb 8a 3c 74 24 0f be
       -0.4091413 0.52491987 0.016935272 -0.1397875
0003f0 4e 50 84 be eb 12 8c 3e cd fb 78 3c a7 6a da bd
       -0.25842518 0.27358183 0.015196753 -0.106648736

linear2.bias f4 [3]
000000 6c a8 3f 3e c9 38 7f 3d fb 0e 2f bc
       0.18716592 0.062310014 -0.010684724
